model/crop_prediction_model.tflite (tflite, 56096 bytes, 8 tensors)

arith.constant f4 [22, 128]
-0.5394245 -4.319304 1.6342567 1.26753 2.4918423 -0.24793844 -0.21324918 -0.0845435
2.117935 1.7166642 3.3573842 0.82621163 -1.8350782 0.9234324 6.4806957 7.9797673
-2.6326666 -1.5048696 -5.8958673 3.1430297 -0.87096435 -0.69539136 -1.5364593 -7.5233603
3.5923014 1.4843299 2.5529366 -10.157387 2.941707 -4.3853793 1.0941032 -0.14988108
7.1047955 -3.9141254 -0.1001878 -0.1487706 -6.1296897 -3.8103194 1.0999806 6.0730257
-3.4183106 1.4956495 -0.64315706 6.710468 -4.151155 2.4163125 -3.48861 -0.64415324
-6.1396933 -6.5890765 1.1465088 2.756759 1.3733064 -6.386804 -0.2951273 -1.6717381
-3.247814 -3.1479092 -2.7553115 -7.5287995 2.7757552 0.15583554 6.694924 3.0930936
1.4196141 1.9935272 -1.0777605 2.3032975 -3.943034 -2.8127177 -3.5313036 -3.1963363
-1.4859784 -2.9468217 -0.9321369 -2.8028734 -1.9087671 3.6635456 9.171133 -4.176358
8.468062 -1.2679206 -0.33678356 5.359368 -4.9414773 0.10725771 6.4075046 0.9971913
5.7615066 -1.5316669 -2.8869858 0.7384056 -0.7129661 -0.07916123 -5.4816337 3.1974661
-4.785549 2.8681493 -0.7769255 1.1667589 -0.47813833 -0.7993448 1.038826 0.036164742
-1.0433941 -1.0539058 -4.883115 -14.972697 4.28013 1.544409 -3.8543398 1.7625251
-2.825373 0.7284433 -17.205189 1.0334452 1.4735425 -2.2605298 1.7442693 -0.8795102
1.1044873 -2.3297303 3.7443295 2.2028136 1.3212905 -2.0816412 4.2467556 -0.9954515
-3.8977234 -7.5081215 1.4546237 -2.0609128 -1.094978 -2.7098176 0.23543984 -1.8185666
-4.8897805 -2.0904593 1.7744244 -3.3456593 -3.5579522 -1.8745713 0.65894073 4.1642547
1.8031449 -3.1266463 -2.5148094 -3.9499273 -1.8401215 -2.8245091 -1.2584411 0.95019627
0.31920376 -2.1688843 -0.13696899 -3.554819 1.0512543 -6.189718 -3.4272928 1.2312915
-0.35992408 -2.2692661 1.0646272 -2.2515578 -4.9289336 -1.5970472 2.5868492 -2.2054675
4.286685 -2.0729606 -1.3101921 1.34523 -1.8501256 -4.091367 3.0268428 0.5989754
-3.2331483 5.064639 5.103769 -2.1736999 -0.16518556 2.9303658 -0.2896139 0.9818445
-3.1533089 -0.761814 -6.2986856 0.74371153 -0.24447826 1.4696752 -4.884862 -5.834968
-3.094889 1.1236894 3.4273548 -2.8105621 0.14603446 -1.476911 1.7118615 -0.9544364
-1.6385807 -1.7125952 2.416635 -0.22270301 1.214022 2.8322263 4.2545815 3.3099463
5.192738 0.24368091 -1.187202 -4.6876836 2.440647 3.4933467 -6.812879 -0.69562656
-6.1147413 0.33559504 -2.4691992 -1.8766418 1.332083 0.14736696 -4.249922 -2.0299053
2.2788677 -1.4548185 1.7377185 0.3873755 0.11310873 1.7381942 1.592953 -2.4707153
1.7566752 -0.65088475 0.2684614 4.358 -5.721622 0.94389284 0.086638644 1.9338267
2.6522179 -4.035297 11.3643265 1.3836524 1.5985864 0.8403337 0.013879055 -2.0691085
0.24593563 0.2522877 -1.0254102 -3.5903249 -3.6342747 1.5040282 -5.5682325 0.8731184
00000000: b917 0abf bd37 8ac0 532f d13f 6c3e a23f
00000010: 587a 1f40 93e3 7dbe fe5d 5abe 2425 adbd
00000020: 3f8c 0740 a7bb db3f 62df 5640 9b82 533f
00000030: d8e3 eabf 1166 6c3f dc61 cf40 415a ff40
00000040: 9c7d 28c0 919f c0bf f2aa bcc0 6627 4940
00000050: 85f7 5ebf 2b05 32bf b3aa c4bf 5ebf f0c0
00000060: 44e8 6540 86fe bd3f 5063 2340 a884 22c1
00000070: ed44 3c40 0755 8cc0 930b 8c3f 6d7a 19be
00000080: 7c5a e340 0881 7ac0 432f cdbd 5257 18be
00000090: 6b26 c4c0 46dc 73c0 2acc 8c3f 3a56 c240
000000a0: 9ac5 5ac0 7171 bf3f f1a5 24bf 27bc d640
000000b0: 43d6 84c0 dda4 1a40 6345 5fc0 3ae7 24bf
000000c0: 5e78 c4c0 b7d9 d2c0 cdc0 923f bd6e 3040
000000d0: 81c8 af3f b360 ccc0 ed1a 97be 84fb d5bf
000000e0: 2fdc 4fc0 5877 49c0 0657 30c0 edeb f0c0
000000f0: f9a5 3140 5a93 1f3e d13c d640 3ff5 4540
00000100: eab5 b53f e62b ff3f 0ef4 89bf 3a69 1340
00000110: ab5a 7cc0 9103 34c0 e100 62c0 c690 4cc0
00000120: 8a34 bebf ba98 3cc0 86a0 6ebf 4762 33c0
00000130: 7b52 f4bf 8877 6a40 f6bc 1241 baa4 85c0
00000140: 2f7d 0741 394b a2bf e56e acbe f17f ab40
00000150: 9520 9ec0 eea9 db3d 470a cd40 ee47 7f3f
00000160: 435e b840 a90d c4bf 60c4 38c0 2608 3d3f
00000170: f284 36bf 481f a2bd 8b69 afc0 49a3 4c40
00000180: 3823 99c0 c28f 3740 97e4 46bf 5b58 953f
00000190: 8cce f4be dca1 4cbf 40f8 843f 7b21 143d
000001a0: f08d 85bf 63e6 86bf 7a42 9cc0 2b90 6fc1
000001b0: d3f6 8840 32af c53f 81ad 76c0 6c9a e13f
000001c0: e9d2 34c0 437b 3a3f 3aa4 89c1 ef47 843f
000001d0: 0a9d bc3f 85ac 10c0 3744 df3f 9527 61bf
000001e0: d75f 8d3f 4d1a 15c0 18a3 6f40 e6fa 0c40
000001f0: 0c20 a93f 9c39 05c0 6ce5 8740 e9d5 7ebf
00000200: 4d74 79c0 8842 f0c0 1c31 ba3f ffe5 03c0
00000210: 3d28 8cbf a76d 2dc0 2417 713e cac6 e8bf
00000220: 1579 9cc0 16ca 05c0 5720 e33f 481f 56c0
00000230: 7db5 63c0 f4f1 efbf 57b0 283f 9341 8540
00000240: 74cd e63f f91a 48c0 a3f2 20c0 9ccb 7cc0
00000250: 1a89 ebbf c2c4 34c0 9914 a1bf 1040 733f
00000260: ad6e a33e 00cf 0ac0 9941 0cbe 2882 63c0
00000270: 808f 863f 2b12 c6c0 c458 5bc0 f69a 9d3f
00000280: f847 b8be a83b 11c0 b445 883f 8619 10c0
00000290: d3b9 9dc0 0b6c ccbf f08e 2540 6126 0dc0
000002a0: 862c 8940 63ab 04c0 60b4 a7bf 7f30 ac3f
000002b0: ead0 ecbf 7aec 82c0 cbb7 4140 7456 193f
000002c0: e7eb 4ec0 8611 a240 1352 a340 e61d 0bc0
000002d0: 6726 29be 1d8b 3b40 4648 94be 295a 7b3f
000002e0: d0cf 49c0 3e06 43bf d58e c9c0 e163 3e3f
000002f0: 8258 7abe 511e bc3f ca50 9cc0 0fb8 bac0
00000300: a912 46c0 0ed5 8f3f c859 5b40 40e0 33c0
00000310: 0f8a 153e 6b0b bdbf 471e db3f f255 74bf
00000320: 03bd d1bf 5236 dbbf 26aa 1a40 420c 64be
00000330: 1365 9b3f 3243 3540 8825 8840 29d6 5340
00000340: e92a a640 7d87 793e 3cf6 97bf 8101 96c0
00000350: 8f33 1c40 fe92 5f40 1b03 dac0 9514 32bf
00000360: f6ab c3c0 1dd3 ab3e 5c07 1ec0 cc35 f0bf
00000370: b281 aa3f 5de7 163e 5cff 87c0 f8e9 01c0
00000380: f8d8 1140 7e37 babf 8f6d de3f 1556 c63e
00000390: 8da5 e73d 267d de3f e2e5 cb3f 3320 1ec0
000003a0: bcda e03f 62a0 26bf c673 893e bc74 8b40
000003b0: 8717 b7c0 f6a2 713f 9a6f b13d a287 f73f
000003c0: f0bd 2940 2721 81c0 48d4 3541 861b b13f
000003d0: 7b9e cc3f 1c20 573f fa64 633c 466c 04c0
000003e0: 8dd6 7b3e da2b 813e a440 83bf e2c7 65c0
000003f0: f597 68c0 ff83 c03f f62e b2c0 b084 5f3f

arith.constant1 f4 [22]
1.1585873 2.600357 4.494417 7.7121863 6.9584274 2.6775622 -5.9841895 -2.075291
4.017462 3.3816166 3.88362 -2.0208552 -3.3946126 2.8030708 -3.5123563 6.300512
2.49805 -7.078236 -2.138009 -2.362219 5.5293627 2.6906211
00000000: 974c 943f 406c 2640 44d2 8f40 3bca f640
00000010: 70ab de40 2e5d 2b40 7b7e bfc0 91d1 04c0
00000020: 0c8f 8040 686c 5840 3b8d 7840 b155 01c0
00000030: 5541 59c0 8365 3340 72ca 60c0 cb9d c940
00000040: 0de0 1f40 e980 e2c0 24d5 08c0 992e 17c0
00000050: 8af0 b040 2333 2c40

arith.constant2 f4 [128, 64]
0.006190532 -0.066823855 0.025822379 -0.004240557 0.12704463 0.1309251 0.07401572 -0.04111884
0.10962698 -0.07148453 0.097546056 -0.24672817 -0.040943746 -0.004338389 -0.10999518 0.03623783
-0.06291309 -0.10715721 -0.068610564 -0.08140932 0.20543806 -0.074979246 -0.18681362 -0.06297302
-0.175487 -0.20926155 -0.10828811 0.069722034 -0.054762598 0.09707759 -0.09436189 -0.0917451
-0.0539216 0.009209454 0.03884928 -0.07689774 0.044886563 -0.04005146 0.13081434 -0.0466447
-0.029644703 -0.009780229 -0.18797429 0.11966782 -0.018508492 0.02193926 -0.051181998 0.16963796
-0.12786765 -0.014343767 -0.09628 -0.05920918 0.057834715 0.08458874 -0.01047118 0.10008026
-0.0944255 0.10560443 -0.045545135 -0.09538592 -0.05879641 -0.04511039 0.1787585 -0.014970312
-0.1308378 -0.3004656 0.02814295 -0.2572645 0.038768142 -0.14769839 0.02908583 -0.104512
0.22929151 -0.013669282 -0.12722729 0.13645068 0.00864777 -0.1710765 -0.077864744 -0.043835722
-0.3331968 0.19413325 -0.25720912 -0.051358726 0.0943091 -0.03564045 -0.2640892 0.031129694
0.12859616 -0.07097484 -0.16633831 -0.123383276 -0.14048323 0.03538531 -0.04494701 0.0007288901
-0.119724646 0.034792062 0.10215143 -0.1323784 -0.12352799 0.07119956 -0.24550943 -0.15110162
-0.086950175 -0.18537502 0.21181497 -0.065889366 -0.1160821 0.18403895 0.20207573 -0.045424316
0.06339336 0.06316059 0.07798743 -0.04980849 -0.092079274 0.10445346 0.059161916 0.03158631
-0.06489974 -0.17124367 -0.17765658 -0.0955315 -0.032270055 0.064905755 0.054246396 -0.05282827
0.15755132 0.0097098 -0.10953391 -0.13380474 0.08358818 -0.10048942 0.013912931 -0.18933813
0.14700241 0.104319476 -0.16001475 0.04158293 -0.056146756 -0.100991 -0.038742945 -0.01413484
0.07111589 0.07569372 0.2187529 0.10429865 -0.036611892 0.0025391642 -0.07545004 0.088988826
0.09991328 -0.0251075 0.12578817 0.03390392 0.13814446 0.11874645 0.014091117 0.0076326816
-0.101687506 0.114763975 -0.12181683 0.07863009 -0.06730411 -0.071654364 -0.06306368 -0.077539444
-0.02807883 0.15397288 0.19495304 -0.043430783 -0.13558565 0.09470644 0.24699004 0.1368592
0.18997043 -0.054072864 -0.11304783 0.13817993 -0.1885595 -0.082058944 0.047294244 0.21821651
-0.017874986 -0.1340145 0.048965883 0.06969963 0.11417103 0.03718784 0.14365579 0.08683597
0.036315855 -0.054063063 0.020182295 0.04854887 0.14932124 -0.15826873 0.025342092 0.29908645
0.046686936 0.10196942 0.15572654 0.14117663 -0.044765778 0.045035288 -0.09436083 0.121504866
-0.06286725 0.3464494 -0.04907332 0.09751359 -0.03498161 0.008380859 0.09390956 0.16425118
0.06024857 -0.04359854 0.040169775 0.12683712 0.029240837 -0.1014133 0.04280031 0.015439433
0.028533153 0.07440425 -0.04655675 -0.034764167 0.013787421 0.11813595 0.114925176 0.14196181
0.18776685 -0.17380486 0.21412887 -0.009909499 0.06489861 0.12652768 -0.080572456 0.1604353
0.0020828089 0.009303021 -0.17800468 0.17662 -0.029571727 0.10677629 -0.016274244 0.0071025155
-0.024186343 0.017753737 0.0019049152 0.055541787 -0.087130204 0.27366737 -0.077813126 -0.054016825
00000000: f2d9 ca3b f2da 88bd 7489 d33c 5ff4 8abb
00000010: fd17 023e 3b11 063e 8e95 973d 3b6c 28bd
00000020: 1c84 e03d 7b66 92bd 3ac6 c73d 4fa6 7cbe
00000030: a1b4 27bd 0b29 8ebb 2745 e1bd 1e6e 143d
00000040: 94d8 80bd 3d75 dbbd b283 8cbd eeb9 a6bd
00000050: 5b5e 523e b88e 99bd 124c 3fbe 00f8 80bd
00000060: ddb2 33be a948 56be 28c6 ddbd 6dca 8e3d
00000070: bf4e 60bd 9ed0 c63d ce40 c1bd dbe4 bbbd
00000080: e5dc 5cbd 40e3 163c 6c20 1f3d 907c 9dbd
00000090: f9da 373d 000d 24bd 32f4 053e 830e 3fbd
000000a0: 73d9 f2bc 413d 20bc 557c 40be 6714 f53d
000000b0: 1f9f 97bc f7b9 b33c 37a4 51bd 93b5 2d3e
000000c0: bdef 02be 1f02 6bbc 732e c5bd 5385 72bd
000000d0: 18e4 6c3d dc3c ad3d 508f 2bbc e1f6 cc3d
000000e0: 2862 c1bd 2347 d83d 898d 3abd b159 c3bd
000000f0: 81d4 70bd acc5 38bd 780c 373e 0a46 75bc
00000100: 58fa 05be a1d6 99be 0b8c e63c 2cb8 83be
00000110: 58cb 1e3d 3f3e 17be 6845 ee3c 630a d6bd
00000120: 65cb 6a3e 20f5 5fbc df47 02be bab9 0b3e
00000130: 60af 0d3c ae2e 2fbe 8d77 9fbd 168d 33bd
00000140: c598 aabe deca 463e eab0 83be 875d 52bd
00000150: 2125 c13d b8fb 11bd b336 87be b303 ff3c
00000160: b6ae 033e 425b 91bd 9754 2abe 5fb0 fcbd
00000170: d6da 0fbe 30f0 103d 5b1a 38bd fd12 3f3a
00000180: 3232 f5bd 1f82 0e3d c534 d13d 348e 07be
00000190: 3efc fcbd 13d1 913d d366 7bbe 62ba 1abe
000001a0: ef12 b2bd f3d2 3dbe 06e6 583e 01f1 86bd
000001b0: 74bc edbd b574 3c3e f1ec 4e3e d90e 3abd
000001c0: 61d4 813d 575a 813d e0b7 9f3d fd03 4cbd
000001d0: 0f94 bcbd b2eb d53d c453 723d a660 013d
000001e0: 28ea 84bd 805a 2fbe 9beb 35be 05a6 c3bd
000001f0: 9b2d 04bd 4fed 843d 7831 5e3d 7562 58bd
00000200: 2255 213e da15 1f3c 5153 e0bd 1c04 09be
00000210: 4830 ab3d 66cd cdbd 10f3 633c dbe1 41be
00000220: cd87 163e 73a5 d53d e8da 23be dd52 2a3d
00000230: 24fa 65bd 5fd4 cebd ecb0 1ebd d195 67bc
00000240: 35a5 913d 4f05 9b3d c300 603e 889a d53d
00000250: 5af6 15bd 1b68 263b 8d85 9abd c63f b63d
00000260: 559f cc3d 3eae cdbc 9dce 003e d6de 0a3d
00000270: be75 0d3e 5731 f33d 6ede 663c 931b fa3b
00000280: 8a41 d0bd 6009 eb3d 1a7b f9bd d008 a13d
00000290: bdd6 89bd 86bf 92bd 8827 81bd 00cd 9ebd
000002a0: 9305 e6bc 11ab 1d3e c5a1 473e 7ae4 31bd
000002b0: f7d6 0abe 73f5 c13d f5ea 7c3e d124 0c3e
000002c0: 9c87 423e 827b 5dbd 9f85 e7bd 0a7f 0d3e
000002d0: be15 41be 850e a8bd 9cb7 413d 2674 5f3e
000002e0: 906e 92bc 193b 09be 7390 483d aebe 8e3d
000002f0: 80d2 e93d 4752 183d 811a 133e 0fd7 b13d
00000300: efbf 143d 3b71 5dbd 5755 a53c 2edb 463d
00000310: abe7 183e 3311 22be 389a cf3c dc21 993e
00000320: cd3a 3f3d 58d5 d03d c776 1f3e 9b90 103e
00000330: 525c 37bd ec76 383d 4040 c1bd 8bd7 f83d
00000340: 8bc0 80bd d161 b13e 1b01 49bd 34b5 c73d
00000350: e048 0fbd df4f 093c a853 c03d 7631 283e
00000360: 34c7 763d 6294 32bd 1089 243d 97e1 013e
00000370: 7b8a ef3c c7b1 cfbd 614f 2f3d adf5 7c3c
00000380: 5cbe e93c 4161 983d 4ab2 3ebd df64 0ebd
00000390: a3e4 613c 43f1 f13d e45d eb3d 705e 113e
000003a0: f445 403e e7f9 31be 9944 5b3e 745b 22bc
000003b0: 90e9 843d 7990 013e 2c03 a5bd 2749 243e
000003c0: bc7f 083b b36b 183c dc46 36be e0db 343e
000003d0: 6840 f2bc 87ad da3d 9051 85bc 38bc e83b
000003e0: 7022 c6bc 4970 913c 59ae f93a c97f 633d
000003f0: 5271 b2bd 211e 8c3e 7d5c 9fbd bf40 5dbd

arith.constant3 f4 [64, 32]
0.12572654 0.086812265 -0.1521822 0.1284996 0.24878478 -0.0090612555 0.204296 0.23901033
0.061052654 0.025349386 0.04011622 0.024205463 0.08625415 -0.26173314 0.2621254 0.005474372
0.16718954 -0.10997181 -0.10267505 0.16356987 0.06118205 -0.091579735 -0.2586813 -0.2500047
0.19341925 -0.007828257 -0.14259328 -0.0014544502 -0.03994053 0.008762919 -0.27632543 0.26222923
-0.14036988 0.2650045 -0.13319732 0.29499087 0.31281132 0.037680496 0.22433418 -0.108766876
-0.1811568 -0.15881161 0.1785036 -0.026899174 0.056992967 -0.1743853 -0.035037704 -0.005311357
0.24580157 0.1138944 0.26418397 0.2650572 -0.14771524 0.087089375 0.049139407 -0.14531517
0.2619756 0.03902883 0.17614967 0.021836776 -0.07847216 -0.17794456 0.02217847 0.2701957
0.13305113 0.21681654 0.18037748 0.11636156 -0.31461665 0.032822803 -0.29561272 -0.1366604
-0.2071767 0.08052357 -0.19767866 0.13091594 0.2676562 -0.009853359 -0.10682719 -0.2204617
-0.17802554 0.012171649 0.12671567 0.14062676 -0.23173791 -0.20768069 0.020031482 0.13144463
0.064436965 -0.09553788 -0.3216348 0.26248187 -0.28857097 0.21727896 0.073521145 0.011852465
0.20748231 0.20678379 -0.11247684 0.045299113 -0.05590086 -0.17804731 -0.13151361 -0.14485711
-0.0035697834 0.2525799 0.23559813 -0.1964647 0.27129734 0.20409694 -0.1872468 0.1964756
-0.025227146 0.081343494 -0.23441634 0.012496249 -0.1771214 -0.26749128 0.182188 0.085652426
0.039104406 0.007541873 -0.22270598 -0.19929299 -0.15646411 -0.06628256 -0.2354984 0.060628425
-0.21562022 -0.021232836 -0.21031483 0.1257291 -0.18892954 0.22787648 -0.15612434 -0.2512011
0.22447412 -0.03378223 -0.19026534 -0.045489967 -0.23358575 -0.07895595 -0.040109992 0.056470912
-0.103043295 -0.16707134 -0.017429233 -0.08722505 0.067589164 -0.14643782 -0.011403607 -0.19782259
-0.08533418 -0.032419562 -0.064785704 0.0030131303 0.20972846 0.07633823 -0.09963994 0.2371611
0.20291066 0.032621346 -0.04983988 -0.12913984 0.13165791 0.25256348 0.25455284 0.06819681
0.19975555 -0.14004615 0.22100055 -0.36704186 -0.091324575 -0.11545855 0.09826553 0.18017206
-0.025557699 -0.0122872535 0.07706193 -0.03039813 0.023073968 -0.2809429 -0.24967486 -0.19183464
-0.015503636 -0.20483153 0.06151976 -0.24032977 0.12849122 -0.2541766 0.0865454 0.016944256
-0.14246213 0.13401592 -0.089209676 0.043442726 0.13772917 -0.11086893 0.03378445 0.063441515
-0.21282476 -0.23450106 -0.2038359 0.070058584 -0.19754171 -0.16597998 -0.22480279 0.092116535
-0.0462268 -0.09162766 -0.1387741 -0.06232649 0.088367164 -0.16978574 -0.07240391 -0.035497904
-0.03925526 -0.056943357 -0.21968484 -0.23559588 -0.16842568 0.1981808 -0.08770108 0.11944044
-0.03740849 0.0026517333 -0.09518875 0.23287012 -0.2187936 -0.2071003 0.27509236 0.1876153
-0.0432409 -0.31364343 -0.22372591 -0.04646159 -0.2971992 0.0046489616 0.12267649 -0.18726288
0.14773168 -0.16935174 0.2013843 -0.14878388 0.14862144 -0.010586972 0.088731125 0.11601819
-0.03654461 -0.050947376 0.20507146 0.09651739 0.033682857 -0.042142462 -0.30685344 0.20831102
00000000: 75be 003e a1ca b13d a7d5 1bbe 6695 033e
00000010: 70c1 7e3e a975 14bc f832 513e 20bf 743e
00000020: 5912 7a3d 84a9 cf3c e850 243d 894a c63c
00000030: 04a6 b03d e301 86be 4d35 863e 5c62 b33b
00000040: bc33 2b3e e638 e1bd 4c47 d2bd dc7e 273e
00000050: 079a 7a3d 288e bbbd e071 84be 9e00 80be
00000060: b20f 463e 1742 00bc f903 12be 40a3 beba
00000070: ae98 23bd 5992 0f3c 877a 8dbe e942 863e
00000080: 1fbd 0fbe abae 873e e164 08be 0b09 973e
00000090: ce28 a03e dd56 1a3d dcb7 653e 2bc1 debd
000000a0: 2b81 39be 839f 22be a6c9 363e a85b dcbc
000000b0: 7571 693d 0f92 32be b283 0fbd e40a aebb
000000c0: 68b3 7b3e 7841 e93d 1f43 873e 94b5 873e
000000d0: aa42 17be ea5b b23d 6746 493d 80cd 14be
000000e0: aa21 863e b2dc 1f3d 9460 343e 0ae3 b23c
000000f0: 03b6 a0bd 1937 36be 9faf b53c 1757 8a3e
00000100: 8e3e 083e 2805 5e3e e0b4 383e f84e ee3d
00000110: 6f15 a1be 3471 063d 8d5a 97be b4f0 0bbe
00000120: 2126 54be 8be9 a43d 466c 4abe d40e 063e
00000130: 3c0a 893e fc6f 21bc 37c8 dabd b6c0 61be
00000140: 544c 36be 996b 473c c1c1 013e 7600 103e
00000150: b44c 6dbe 3faa 54be 1019 a43c 6c99 063e
00000160: 87f7 833d 5da9 c3bd 51ad a4be 0664 863e
00000170: 93bf 93be 607e 5e3e 4192 963d d730 423c
00000180: 3e76 543e 21bf 533e 425a e6bd 908b 393d
00000190: 4df8 64bd 0952 36be 81ab 06be 6c55 14be
000001a0: 07f3 69bb 2752 813e a340 713e 0b2e 49be
000001b0: 7ce7 8a3e cafe 503e a0bd 3fbe e630 493e
000001c0: 29a9 cebc 6b97 a63d d60a 70be 11bd 4c3c
000001d0: 505f 35be 9ef4 88be 7e8f 3a3e 8a6a af3d
000001e0: f12b 203d d121 f73b 090d 64be 7613 4cbe
000001f0: 2138 20be 27bf 87bd 7e26 71be 8355 783d
00000200: 8ccb 5cbe 7cf0 adbc c55c 57be 21bf 003e
00000210: bf76 41be 7458 693e 0fdf 1fbe 6e9d 80be
00000220: 8bdc 653e 3c5f 0abd ebd4 42be b053 3abd
00000230: 1a31 6fbe a8b3 a1bd 604a 24bd 0b4e 673d
00000240: 5d08 d3bd c014 2bbe c0c7 8ebc 0ca3 b2bd
00000250: 306c 8a3d ccf3 15be 32d6 3abc 0192 4abe
00000260: b0c3 aebd 60ca 04bd 5eae 84bd f077 453b
00000270: 0fc3 563e 3857 9c3d 0610 ccbd 5cda 723e
00000280: d0c7 4f3e f69d 053d e724 4cbd 3c3d 04be
00000290: 55d1 063e 0050 813e c054 823e c5aa 8b3d
000002a0: b88c 4c3e 4268 0fbe f84d 623e e9ec bbbe
000002b0: 6108 bbbd 8875 ecbd 703f c93d 067f 383e
000002c0: 615e d1bc 7a50 49bc a5d2 9d3d 8005 f9bc
000002d0: 9e05 bd3c bfd7 8fbe c4aa 7fbe 4d70 44be
000002e0: f602 7ebc 5bbf 51be 25fc 7b3d 0219 76be
000002f0: 3493 033e 6f23 82be b73e b13d aece 8a3c
00000300: 98e1 11be 783b 093e 90b3 b6bd 00f1 313d
00000310: e008 0d3e 400f e3bd 9061 0a3d a0ed 813d
00000320: bcee 59be 0c21 70be 5cba 50be e07a 8f3d
00000330: 6048 4abe a8f6 29be b432 66be 98a7 bc3d
00000340: 5058 3dbd 48a7 bbbd cc1a 0ebe 104a 7fbd
00000350: d8f9 b43d 50dc 2dbe 8048 94bd 4066 11bd
00000360: 20ca 20bd 703d 69bd 10f5 60be 0c40 71be
00000370: c877 2cbe e8ef 4a3e a09c b3bd 309d f43d
00000380: a539 19bd b4c8 2d3b 52f2 c2bd 8175 6e3e
00000390: 6e0b 60be 1a12 54be e8d8 8c3e 3a1e 403e
000003a0: 5f1d 31bd df95 a0be 6818 65be 824e 3ebd
000003b0: 7e2a 98be 5156 983b d03d fb3d d7c1 3fbe
000003c0: f946 173e 8b6a 2dbe b037 4e3e cd5a 18be
000003d0: 3830 183e fb74 2dbc aab8 b53d f29a ed3d
000003e0: cdaf 15bd 32ae 50bd 41fe 513e e9aa c53d
000003f0: 09f7 093d 939d 2cbd e51b 9dbe 7c4f 553e

arith.constant4 f4 [128]
0.13506582 0.036040273 0.023691332 -0.0094303265 0.032379556 -0.020244557 0.13188146 0.0015201668
0.07950046 0.07101287 -0.05947098 -0.004006655 -0.0025511598 0.019607572 -0.02801118 0.09756386
0.01698568 -0.13757144 -0.07870708 0.04037824 -0.024995549 -0.004715515 0.022878068 0.074916795
-0.019215995 -0.060558286 -0.004253316 0.10063555 0.06550827 -0.01565882 -0.047648024 0.078368016
0.009232945 0.054988354 -0.0248136 -0.008364594 -0.053918436 -0.04650562 -0.043322977 0.060404077
-0.020079598 0.012478112 0.046928 0.0070246607 -0.09292243 0.06050671 0.0016043364 0.038839698
-0.014421377 0.00069475116 0.09205996 0.022465669 0.07928623 -0.008124317 0.012134489 0.008385529
-0.036487337 -0.03886309 0.063603476 0.07224144 0.053994603 -0.050686534 0.10767845 0.050993916
0.033222105 -0.044720087 -0.04042587 0.024081754 0.0035335608 0.10208983 0.0083088195 -0.04899366
-0.034694813 0.0 0.032560762 0.12934439 0.052953452 -0.033535413 0.06725693 0.12756173
0.012128459 0.02867192 0.03237733 0.045102607 0.024252675 -0.016365577 0.06935732 0.0018658607
-0.0075785904 0.061141327 0.034070753 -0.010465314 -0.0051631066 -0.017784743 -0.023388753 0.006021223
-0.05052242 0.05888155 0.039169677 0.07848748 -0.0007928928 0.06470887 0.016491726 -0.12253661
-0.055602238 -0.008077757 -0.024915315 0.07468308 -0.085038565 0.046497516 0.051694375 0.016624693
-0.015295489 0.044447973 0.010185632 0.048675414 0.015137963 0.015578236 -0.020821521 -0.010734461
0.03354996 0.028792782 0.06280153 -0.0051662694 0.062754326 -0.0058644796 0.07662812 0.0032731595
00000000: b24e 0a3e f79e 133d 5314 c23c a881 1abc
00000010: 6da0 043d ead7 a5bc ef0b 073e 5540 c73a
00000020: 23d1 a23d 326f 913d d897 73bd 424a 83bb
00000030: 5c31 27bb 0fa0 a03c b477 e5bc 90cf c73d
00000040: 8e25 8b3c 87df 0cbe 2d31 a1bd a763 253d
00000050: 77c3 ccbc 9b84 9abb c96a bb3c fa6d 993d
00000060: dd6a 9dbc f70b 78bd 675f 8bbb 031a ce3d
00000070: 3329 863d ed46 80bc 932a 43bd 697f a03d
00000080: c745 173c 783b 613d e445 cbbc a60b 09bc
00000090: 94d9 5cbd ad7c 3ebd 6f73 31bd 446a 773d
000000a0: f87d a4bc ff70 4c3c 9337 403d 202f e63b
000000b0: 1d4e bebd e2d5 773d 9948 d23a 6016 1f3d
000000c0: a447 6cbc f61f 363a ef89 bc3d ec09 b83c
000000d0: d260 a23d db1b 05bc bccf 463c 7563 093c
000000e0: bf73 15bd e72e 1fbd 8a42 823d 52f3 933d
000000f0: 7229 5d3d af9c 4fbd 8586 dc3d ffde 503d
00000100: e713 083d 692c 37bd 9995 25bd 1947 c53c
00000110: 5093 673b 7914 d13d b721 083c 93ad 48bd
00000120: 261c 0ebd 0000 0000 6f5e 053d db72 043e
00000130: b8e5 583d 6e5c 09bd 00be 893d 8b9f 023e
00000140: 72b6 463c 60e1 ea3c 179e 043d 83bd 383d
00000150: 8cad c63c 1a11 86bc 360b 8e3d e58f f43a
00000160: d355 f8bb 546f 7a3d c68d 0b3d b576 2bbc
00000170: 472f a9bb 4fb1 91bc c599 bfbc ae4d c53b
00000180: 99f0 4ebd c82d 713d 6270 203d 0bbe a03d
00000190: 23da 4fba 1686 843d a819 873c 79f4 fabd
000001a0: 2cbf 63bd 9258 04bc 341b ccbc 71f3 983d
000001b0: b328 aebd 2e74 3e3d 7bbd 533d 8230 883c
000001c0: ee99 7abc 140f 363d a3e1 263c df5f 473d
000001d0: 3805 783c dc3b 7f3c e591 aabc 98df 2fbc
000001e0: af6b 093d d7de eb3c 179e 803d cf49 a9bb
000001f0: 5785 803d d22a c0bb 34ef 9c3d 8182 563b

arith.constant5 f4 [32]
-0.027703596 -0.05729367 0.08204269 -0.023921814 -0.10236955 0.02501598 -0.008294047 0.019972159
-0.013774476 0.05315347 -0.094687 0.053952347 -0.045535307 0.08759647 0.057060745 -0.0018688798
0.005103276 -0.017486561 -0.11568168 -0.054074537 0.11092865 -0.05346415 -0.028313855 0.0416973
-0.03734347 0.095342666 0.05862724 -0.0018766046 0.029852878 -0.011948792 0.024018632 0.026639374
00000000: a7f2 e2bc c4ac 6abd ff05 a83d aef7 c3bc
00000010: 20a7 d1bd 50ee cc3c c1e3 07bc a79c a33c
00000020: 57ae 61bc 74b7 593d 42eb c1bd 23fd 5c3d
00000030: 3b83 3abd c765 b33d 87b8 693d 33f5 f4ba
00000040: 6239 a73b fa3f 8fbc 84ea ecbd 437d 5dbd
00000050: 8f2e e33d 39fd 5abd 75f2 e7bc caca 2a3d
00000060: 77f5 18bd 0443 c33d 1e23 703d 67f8 f5ba
00000070: 068e f43c dec4 43bc b9c2 c43c d13a da3c

arith.constant6 f4 [64]
-0.018330213 -0.093083724 0.036009952 0.02860022 -0.0139396265 0.05510938 0.0 0.020660076
0.025745358 0.039211474 -0.08396846 -0.06628679 -0.0064666253 -0.058209524 -0.013628008 -0.07325923
0.083296224 0.04453994 0.0099469535 -0.04848668 0.041192323 0.082953535 -0.15726253 0.08708763
0.06705237 0.01893559 0.0 -0.03554582 -0.046012785 -0.10164878 0.055258855 0.037716355
-0.05522992 0.15851393 -0.110357806 0.020016016 -0.018062374 0.050815936 0.06472046 0.0748857
0.12539111 0.020020131 -0.020992052 -0.023578659 -0.09291375 0.0740718 -0.033306982 0.035589855
-0.09370187 -0.06219734 -0.110702835 0.08157705 0.11528538 0.07333577 0.0 -0.069621995
0.0 0.08422152 0.07352506 -0.11590356 0.05129302 0.017036932 0.015061849 -0.016594348
00000000: 3e29 96bc aea2 bebd 2c7f 133d 024b ea3c
00000010: 0863 64bc 60ba 613d 0000 0000 523f a93c
00000020: eee7 d23c 369c 203d a8f7 abbd 5ec1 87bd
00000030: fce5 d3bb 1c6d 6ebd 0248 5fbc ef08 96bd
00000040: 3697 aa3d 836f 363d 8cf8 223c f899 46bd
00000050: 48b9 283d 8be3 a93d 6e09 21be 005b b23d
00000060: c152 893d cf1e 9b3c 0000 0000 7e98 11bd
00000070: e777 3cbd 3c2d d0bd 1c57 623d 777c 1a3d
00000080: c538 62bd 7a51 223e 4603 e2bd a1f8 a33c
00000090: 8bf7 93bc 5f24 503d 298c 843d ad5d 993d
000000a0: 8766 003e 4201 a43c 86f7 abbc 0828 c1bc
000000b0: 9049 bebd f5b2 973d e76c 08bd abc6 113d
000000c0: c4e6 bfbd a3c2 7ebd 2bb8 e2bd de11 a73d
000000d0: be1a ec3d 1031 963d 0000 0000 fa95 8ebd
000000e0: 0000 0000 557c ac3d 4f94 963d d85e edbd
000000f0: a118 523d 0991 8b3c f9c5 763c dff0 87bc

sequential_1/dense_1/MatMul f4 [32, 3]
-0.02700455 0.2548989 -0.3451738 0.39339384 -0.08913757 -0.09605001 0.2608292 0.37423143
0.39896083 0.007862589 -0.46167567 -0.04262362 -0.015032055 -0.100759126 -0.33759663 0.23095977
-0.31908295 -0.09591755 0.24871568 0.0971613 -0.40820155 -0.33611277 -0.2608021 0.12143838
0.4415064 -0.36099094 0.049394153 0.2742263 -0.32018617 -0.23977615 0.35393122 -0.17900302
-0.10653932 -0.16418432 0.5123071 0.17100698 0.33392236 -0.33966842 -0.32692575 -0.093927905
-0.14592317 -0.35182914 -0.030596718 0.14676368 0.30270007 0.41187415 0.19768752 0.1133215
0.2273408 -0.14261067 0.38548726 -0.2432283 0.25256574 0.30094308 0.08080292 0.34067845
-0.24354447 -0.38701186 -0.29103535 0.015789809 0.053142756 0.05948149 -0.36149785 -0.21705037
0.021128302 -0.24776782 0.24362414 0.41845733 0.0942101 -0.12404211 -0.4233731 0.14782621
-0.06697252 0.09211566 0.322347 0.0073769805 0.48399574 -0.081368394 -0.034087535 0.008145041
-0.32037157 0.3370459 -0.3862328 0.4419896 0.034941036 0.22701503 -0.2841602 -0.08693978
-0.05154113 -0.09977752 0.4456512 0.16477096 0.33434823 0.046011016 0.57892615 -0.13295038
00000000: a538 ddbc 1c82 823e 9fba b0be eb6a c93e
00000010: c28d b6bd deb5 c4bd 688b 853e 439b bf3e
00000020: 9844 cc3e 17d2 003c c160 ecbe 1b96 2ebd
00000030: 0249 76bc cd5a cebd 77d9 acbe b880 6c3e
00000040: d75e a3be 6c70 c4bd 53af 7e3e 81fc c63d
00000050: cbff d0be f916 acbe da87 85be afb4 f83d
00000060: 200d e23e ced3 b8be 8651 4a3d 6467 8c3e
00000070: 71ef a3be e187 75be 7936 b53e 914c 37be
00000080: 4931 dabd ef1f 28be 8f26 033f 741c 2f3e
00000090: dff7 aa3e 05e9 adbe d062 a7be 465d c0bd
000000a0: e26c 15be f322 b4be f8a5 fabc 3849 163e
000000b0: 81fb 9a3e 2be1 d23e 996e 4a3e 1a15 e83d
000000c0: 07cc 683e 8808 12be 965e c53e d710 79be
000000d0: 4c50 813e 3615 9a3e 007c a53d 686d ae3e
000000e0: b963 79be 6b26 c6be 9602 95be a159 813c
000000f0: 38ac 593d dda2 733d 3f16 b9be 7442 5ebe
00000100: 4315 ad3c d9b6 7dbe 9b78 793e 0a40 d63e
00000110: 3af1 c03d ca09 febd 5cc4 d8be c15f 173e
00000120: e328 89bd 23a7 bc3d aa0a a53e 99ba f13b
00000130: 4ace f73e 79a4 a6bd 5f9f 0bbd c772 053c
00000140: be07 a4be 4891 ac3e 4ec0 c5be 764c e23e
00000150: 551e 0f3d a176 683e 727d 91be 7c0d b2bd
00000160: cb1c 53bd 2858 ccbd 652c e43e b8b9 283e
00000170: b12f ab3e 0c76 3c3d 8134 143f 2524 08be
