model/model_lstm_forecast.tflite (tflite, 33620 bytes, 7 tensors)

arith.constant3 f4 [1, 40]
000000 2e 1a 52 bd 2e 81 83 bc bc c3 2d 3e 49 62 8b 3e
       -0.0512945 -0.016052809 0.16969198 0.27223423
000010 c6 55 98 bd 9a f5 66 be 2f fe 11 bd 91 ab 28 3e
       -0.07438235 -0.22554627 -0.0356428 0.16471697
000020 0a 5d 21 be b1 fe 35 be bb 4b 34 3e 13 78 16 be
       -0.15758148 -0.17772938 0.17607014 -0.14694242
000030 a7 50 65 3e ed ee cf 3e 52 7a ad be 2c 33 6b be
       0.22394048 0.40611973 -0.33882385 -0.2296874
000040 1e 03 91 3d f7 54 16 3e 07 07 85 3e cd 84 4b be
       0.07080673 0.14680849 0.25981924 -0.19874878
000050 db a0 1e be c4 94 a6 bd 07 bd 44 3d b2 95 ab bd
       -0.15491049 -0.081338435 0.048031833 -0.083781615
000060 bc 6f 8a 3c 5c e8 c2 be d1 34 6b 3c 21 b5 74 3e
       0.016898982 -0.380679 0.014355854 0.2389722
000070 00 a4 5b bd 24 d7 52 be 77 ef 0a be 93 64 a8 be
       -0.0536232 -0.20589882 -0.13567911 -0.32889232
000080 57 58 8e 3e c0 22 1d 3e 39 70 86 3e a0 67 69 3d
       0.27801773 0.15345287 0.26257494 0.05698359
000090 5e 66 84 3c eb bc 1b be ac bf 30 bd 62 d9 5a be
       0.016162094 -0.15208785 -0.043151543 -0.21371987

arith.constant16 f4 [40, 1]
000000 b8 54 7a 3e c5 a1 ce be b0 07 8e be d2 94 c7 bd
       0.2444638 -0.40357795 -0.2774024 -0.09745182
000010 28 75 9b 3e d7 4b cd 3e 64 11 33 be 6b 53 e2 bd
       0.3036282 0.40096924 -0.17487103 -0.11051067
000020 4d 93 88 3d aa e9 0a 3e bf 03 ab be 7b 0c 0c 3e
       0.066687204 0.13565698 -0.33401296 0.13676636
000030 b8 95 e4 3e b2 86 e4 be 4f ad 83 3e f2 dc 84 3e
       0.44645476 -0.44634014 0.2571816 0.25949818
000040 35 7f 55 3e 81 7f 99 bd 5d 44 08 be e6 b6 eb 3d
       0.20849307 -0.074950226 -0.13307329 0.115094945
000050 17 90 a0 be 1a df 77 be fc 81 47 be 13 38 9f ba
       -0.31359932 -0.242062 -0.19483179 -0.0012147449
000060 f6 5a 0e 3e 87 3a f0 3e df fb 6b be fa f8 9f be
       0.13901886 0.46919653 -0.230453 -0.31244642
000070 1a 67 5b 3d 12 27 f2 be ff bf 89 3e a2 78 12 bc
       0.053565122 -0.47295433 0.26904294 -0.008939894
000080 f7 b2 e1 be 48 d7 cc be 7e f4 c4 bd eb 4f f1 be
       -0.44081852 -0.40007997 -0.09616946 -0.47131285
000090 18 d0 8c 3e 30 63 8a 3e c4 a2 84 3e 1e 6d cb 3e
       0.27502513 0.270288 0.2590543 0.39731687

arith.constant17 f4 [40, 40]
000000 f9 c8 50 bd a1 cc 0d bd e6 4b 4a 3d d3 a8 c6 bb
       -0.050972912 -0.034618977 0.04938879 -0.006062606
000010 91 a4 94 be 47 c1 2b bd 84 a5 fa 3d d2 b8 37 be
       -0.29031804 -0.04193237 0.12238601 -0.17941597
000020 d0 50 6e bc a5 f5 a7 be 81 24 85 3e 46 b2 5e be
       -0.014545634 -0.328046 0.26004413 -0.21747693
000030 fa 98 05 3e fd e6 8a 3d 36 da 45 3e bd d9 06 3c
       0.13046637 0.06782339 0.19321522 0.008230624
000040 59 41 a2 bd ef cd a5 bd 2a 32 26 be 10 13 26 3e
       -0.0792262 -0.08095919 -0.16230074 0.1621821
000050 c0 45 b2 bd c0 d2 01 be 65 11 0e 3e 1b 99 23 be
       -0.0870471 -0.12678051 0.13873823 -0.15976374
000060 04 31 26 3e 8d 7d 10 3e 35 c9 a4 be 9f 50 1c 3e
       0.16229635 0.14110394 -0.3218476 0.1526513
000070 0a 4d c4 bd 8d 72 06 3d 2a c6 06 be a7 08 e0 bd
       -0.095850065 0.032824088 -0.13161531 -0.1093915
000080 cc 63 48 be fa c1 25 3e 34 d7 b0 be 67 c1 80 bd
       -0.1956932 0.16187277 -0.34539187 -0.062868886
000090 60 ff 3e be 29 d3 08 3e 0b b8 33 bd 15 ba c9 3d
       -0.18652105 0.13361801 -0.04387669 0.098499455
0000a0 51 c6 a3 3c db 51 12 3e a7 c0 03 3e b0 34 89 be
       0.019992026 0.14289038 0.1286646 -0.2679801
0000b0 70 45 71 3d ca bb a3 bc 4a 76 02 be 78 01 58 3e
       0.05890411 -0.019987006 -0.12740436 0.2109431
0000c0 b2 ba 05 bd 18 0a 86 be 30 35 62 3d de 41 22 3e
       -0.03264875 -0.26179576 0.055226505 0.15845439
0000d0 c2 a2 6b bd 49 8b 64 3e b5 33 9c 3d 90 ec 05 3e
       -0.057528265 0.22318758 0.0762705 0.13078523
0000e0 c7 9a 32 3e 3e 6a 58 bd 60 30 ee bd a1 bb e1 3d
       0.17441855 -0.052835695 -0.116303205 0.110221155
0000f0 fd 14 b4 3d 5d d3 8b be 0d 19 01 3d 48 86 a2 3b
       0.08793066 -0.27309695 0.03151803 0.004959855
000100 7a 08 95 be 60 2a 9c 3d 83 2c 3b be b2 80 f2 3d
       -0.2910803 0.0762527 -0.18278699 0.11840953
000110 6e 07 88 3d 82 8d 21 bd 50 1d 3c 3d c0 d6 26 3d
       0.06642042 -0.039441593 0.045926392 0.040732145
000120 b8 48 9a 3d b3 39 a1 3d 9a fb d5 3d 62 6c 44 be
       0.07533401 0.078723334 0.1044838 -0.1918197
000130 52 fc 93 3b 84 66 ac be 70 ac 87 3e b0 82 55 be
       0.004516163 -0.33671963 0.26498747 -0.20850635
000140 36 50 32 be 0e 51 5b 3e f5 38 fb bd 40 0a a7 be
       -0.1741341 0.21417639 -0.12266723 -0.32625008
000150 e5 6f ae bc 87 31 08 be 5f 18 86 bd d5 89 9b 3b
       -0.02129359 -0.13300143 -0.06547617 0.0047466555
000160 22 8b 9b 3d 2a 4b c7 3d 8c 9b c7 bd fa 4b b0 3d
       0.07594897 0.09731133 -0.09746465 0.086082414
000170 de af 6e bd c0 bd 6e bd 4a 72 7b bd e1 25 ea bc
       -0.05827319 -0.05828643 -0.06138829 -0.028582515
000180 9c f1 be bb 80 f1 cd 3e 03 b3 39 be 13 f2 c6 be
       -0.005827142 0.40223312 -0.18134694 -0.38856563
000190 28 0b f5 3d fd bc 92 3d b8 17 a0 bd 26 7a b7 be
       0.119650185 0.07164953 -0.07817024 -0.3583538
0001a0 89 2c 2d bd 56 4b f4 bd 09 20 b1 bd 89 4e 11 3c
       -0.0422788 -0.11928432 -0.08648688 0.008868822
0001b0 b1 e0 ea 3b 37 d2 02 be 19 6c d7 bc 3b 31 2a 3e
       0.0071678986 -0.12775503 -0.026296662 0.16620342
0001c0 66 b9 61 be 3a 39 dd 3d fc e1 54 be 81 f8 e5 3d
       -0.2204338 0.10801931 -0.20789331 0.11229039
0001d0 61 75 15 3e 7c 42 e1 3d 91 d7 0c be 62 76 8f be
       0.14595558 0.10999009 -0.13754107 -0.28020006
0001e0 07 3c 07 be 04 23 bf 3d 9d ce bb 3d bf 0a 73 3c
       -0.13206492 0.093328506 0.09170268 0.014834105
0001f0 73 4a 82 be 3f 84 84 3c cd ed 87 be e6 4f 6b bc
       -0.25447425 0.016176341 -0.26548615 -0.014362311
000200 70 38 d3 bc 0e 89 19 3e 75 f8 88 bd 97 f5 4f bd
       -0.025783747 0.14993688 -0.066880144 -0.050771322
000210 e4 f9 ab bd fd ee 63 be 91 f7 46 3e ca bf 41 be
       -0.08397272 -0.22259136 0.19430377 -0.18920818
000220 b6 55 1d 3d 0a 16 09 be 34 ee 42 3e ee 00 05 3d
       0.03841182 -0.13387313 0.1903618 0.03247159
000230 a3 f0 cd bd df 84 2e 3e 3a 2d 3d 3e 3d e6 4e be
       -0.100556634 0.17042874 0.18474284 -0.20205016
000240 c5 7d 1a be 47 67 2a 3e 99 cd 0a 3e db 50 58 3e
       -0.1508704 0.1664096 0.13554992 0.21124594
000250 6e 88 85 be f3 1e 77 be 55 33 55 3e e8 27 c1 3d
       -0.2608065 -0.241329 0.20820363 0.0943144
000260 ab 78 74 3d d9 3b 8f 3e f3 0e ab 3d 25 48 0a 3e
       0.05968539 0.27975348 0.08352461 0.13504083
000270 fd 40 4d be da 15 bc 3c 9f 46 76 3e bf 4a 56 3e
       -0.20044322 0.022959638 0.24050377 0.20926951
000280 d6 16 28 be e0 bf fb 3d bb ab 06 3f 8c a6 99 bd
       -0.16414961 0.122924566 0.5260579 -0.075024694
000290 4e b2 82 3d 5d 1a 05 bd 1f 9f a4 3d b0 18 3d 3e
       0.06381665 -0.032495845 0.080381624 0.18466449
0002a0 1f bc 4b be 0d a4 d1 3d 3d 9b 5a 3b b2 cb d7 be
       -0.19895981 0.10236368 0.003335669 -0.42147595
0002b0 2f 0c f2 bd e6 e2 6a bd 29 10 b0 3d d5 ec 0c 3d
       -0.1181873 -0.057345293 0.08596832 0.034405548
0002c0 e3 cd 18 3e 79 ea bd 3c fb 9f 7a 3e 5c f0 e1 bc
       0.1492229 0.023183094 0.2447509 -0.027580433
0002d0 5f 56 16 3e bb 00 d7 bd a4 42 50 bc 60 cc 96 bd
       0.14681385 -0.10498186 -0.012711201 -0.073632
0002e0 00 18 42 3b c1 da df bd e7 c9 ca 3d 85 7a a5 be
       0.0029616356 -0.10930396 0.09901791 -0.32320037
0002f0 df 1f b1 3d 87 6f 36 3e e9 24 f6 bb 9e 22 10 be
       0.08648657 0.17815982 -0.0075117243 -0.14075705
000300 d6 a5 eb bd 65 be 4f bd 82 c8 93 be 0e 6b 89 3e
       -0.1150624 -0.050718684 -0.28863913 0.2683949
000310 d3 bf e2 bd 6e 48 e1 bd a8 fe 12 3e 35 c9 6d be
       -0.11071744 -0.11000143 0.14354956 -0.23221286
000320 9e 5d 40 bd 1c 53 c6 3d 42 75 16 bd 9e d0 9f 3d
       -0.04696428 0.096838206 -0.03673292 0.078034624
000330 1e 9a 3d 3d c2 cd 96 be 1c 6e 24 be 77 cb 56 be
       0.046289556 -0.29453856 -0.16057628 -0.20976053
000340 c4 6a 55 bd 9f b2 fb 3d 53 13 f4 bd 6f 46 c3 3c
       -0.052103773 0.12289929 -0.11917748 0.023837296
000350 dc 6a 1d 3e 32 dc 2c be 4d 56 eb 3d 12 a7 4d 3e
       0.15372795 -0.16880873 0.1149107 0.20083264
000360 4b b5 47 be ec 28 d9 3d f7 ca b2 3d 71 5b 45 be
       -0.19502752 0.10603508 0.08730119 -0.19273163
000370 0f 2b 1f 3d 7c dc df bd 4f b8 09 3e 31 3e d2 3e
       0.038859423 -0.10930726 0.13449214 0.41063073
000380 ca 85 02 be d9 7c 6c 3e 46 0f a7 bd 2a 05 7d be
       -0.12746349 0.230945 -0.0815721 -0.24709001
000390 ea d4 76 bd 5c c9 f0 3c 46 42 85 3d 1e c6 5b bd
       -0.060261644 0.02939289 0.06506781 -0.053655736
0003a0 2b d2 1a be 5a a9 ac 3d ac c8 8c bd b8 ba a1 be
       -0.15119235 0.08430739 -0.068742126 -0.31587768
0003b0 41 54 28 be b8 ac 73 bd 8e 5b f6 3c 62 3b bd bd
       -0.1643839 -0.05949089 0.030072954 -0.09239842
0003c0 bc 68 35 3c 58 ee 89 be ae 53 83 bd e4 8f 92 3d
       0.011072334 -0.26939654 -0.06412445 0.07156351
0003d0 c5 a0 1c be 51 3b 3d 3e 24 09 cc bd 21 bb a6 3e
       -0.15295704 0.18479659 -0.09962681 0.32564643
0003e0 8f 32 23 be eb 04 18 3e 90 1b a4 3d c2 f9 8a be
       -0.15937255 0.14845626 0.0801307 -0.27143675
0003f0 4c b6 16 3e 81 78 b5 bd 7e 30 83 be 9d 38 18 be
       0.14717978 -0.08860875 -0.25622934 -0.14865346

arith.constant18 f4 [40]
000000 84 3c a5 bc 6a f8 ce 3c d6 1c ce 3c 35 7f df 3c
       -0.020170458 0.025264937 0.025160234 0.027282337
000010 94 95 4e bc 20 5a cd bd fe c1 99 bc 41 dc 94 3d
       -0.012608904 -0.100269556 -0.01876926 0.072685726
000020 f0 4d 92 bd df 71 02 bd 69 6e 36 bd f4 fb 54 bc
       -0.07143772 -0.031846877 -0.04453889 -0.012999523
000030 f5 02 be bb 8f db c0 bd 5e 91 20 bd f2 f1 a5 3d
       -0.0057986923 -0.094168775 -0.039201133 0.08102788
000040 c8 19 24 bc eb 40 1f bc 04 ad d7 bd 41 9d 3e 3c
       -0.010015912 -0.0097200675 -0.10531047 0.011634172
000050 e5 92 f5 3c 04 2f b8 bb d1 e8 9e 3c 90 17 6f bd
       0.029977271 -0.005620839 0.019398125 -0.05837208
000060 6b a6 41 bc 3e 40 8a bd 8d b0 0a 3c 0b 1c b6 3d
       -0.011819462 -0.067505345 0.008464945 0.088920675
000070 cc fa 72 3d b7 38 9d bc dc 57 ea bc 59 0a c2 bc
       0.05932121 -0.019192083 -0.028606348 -0.023686575
000080 9c a9 2f bc df a8 f5 bd a7 82 f5 bc 5f 13 65 3d
       -0.01072159 -0.119951 -0.029969526 0.055926677
000090 d0 bd cc bc ca 71 e4 3b a5 b2 66 bc a6 8e dd 3c
       -0.024992853 0.0069715725 -0.014080678 0.02704556

arith.constant22 f4 [40, 40]
000000 8b 16 0d be 99 02 4f 3e e2 45 63 be c7 68 0a be
       -0.1377813 0.20215835 -0.22194627 -0.13516532
000010 23 b7 67 be 0b 07 0b 3e 0b aa 54 be 01 cf 1e 3e
       -0.22628455 0.13576905 -0.20767991 0.15508653
000020 cb 61 d7 bd 9c 73 5f 3d a4 d5 73 3e 1d 97 a6 3d
       -0.105166994 0.054553613 0.23811966 0.08134291
000030 6f d9 50 3e 79 cc 97 3e d5 b1 7d be 4e 6a ef bc
       0.20395444 0.29648188 -0.24774869 -0.029225495
000040 78 1b fd bd 04 76 0f be 9d f1 c2 3d b3 e2 ce 3d
       -0.12358755 -0.14009863 0.0951874 0.10101833
000050 f0 92 17 be b5 57 4f be 04 9b 7f be d7 d4 0c be
       -0.14802146 -0.20248301 -0.24961478 -0.13753067
000060 07 13 f9 bd 40 8b 10 3e 44 47 ff bd 6f 37 20 3e
       -0.12161832 0.1411562 -0.12464765 0.15646146
000070 60 58 b3 3d 03 f7 d2 bd f0 92 2e bd 2b c8 3c bd
       0.087570906 -0.1030102 -0.0426206 -0.046089333
000080 82 d5 2b 3b 61 69 cf bd f7 67 97 3d dc 41 7e 3e
       0.002621979 -0.10127521 0.073928766 0.24829811
000090 f6 b0 7c bd 1d 13 1a be 1c 2c 17 be ff af 26 3e
       -0.0616922 -0.15046354 -0.1476292 0.16278075
0000a0 d8 86 10 be d7 b0 ad 3d ec c8 16 3e 9f 4c da bc
       -0.14113939 0.08480995 0.14725083 -0.026647864
0000b0 ad 26 5d bd ae 0c 97 be a0 fd 5c 3e 5d 9b 17 be
       -0.053991962 -0.2950186 0.21581125 -0.1480536
0000c0 55 c4 4e be 44 28 4a 3e 91 23 1a 3e b7 09 a1 3d
       -0.20192082 0.19741923 0.1505263 0.07863181
0000d0 c2 3f c1 3b a9 00 e0 bd ce 16 1c 3e 8e 14 ff bd
       0.005897493 -0.10937626 0.15243074 -0.12455092
0000e0 73 79 3e 3d 0b b1 02 3e b2 02 82 3e 3c 7e 71 3e
       0.04650254 0.12762849 0.2539268 0.23583311
0000f0 e0 64 dc 3d c9 69 1b be 4b 54 82 be 5f 12 46 3e
       0.10761428 -0.15177073 -0.25454935 0.19342946
000100 37 4d 64 3e 1f d3 0a bc 0b 21 4f bd 4a 43 f9 3d
       0.2229508 -0.008473187 -0.05056862 0.121710375
000110 7b cc 22 be 3c 8c 31 3d f3 92 10 3e 58 76 25 3c
       -0.15898316 0.04334663 0.14118557 0.010099016
000120 f6 e6 1e 3e fd 3a 27 be f1 fe 6a 3c 46 7c 5f be
       0.15517792 -0.16331096 0.014343009 -0.2182475
000130 f9 a4 95 be 4a 39 5a be 52 dd 0d 3e c0 0f c3 bd
       -0.29227427 -0.21310917 0.13853958 -0.095244884
000140 9a 26 87 be 7e 06 f2 3c ff e8 27 be 2b 02 1e be
       -0.26396638 0.029544111 -0.16397475 -0.15430515
000150 84 35 93 bc d2 77 0a bd 16 34 42 be bd 15 5d 3e
       -0.017969854 -0.033805676 -0.18965182 0.21590324
000160 69 b5 1f 3d 88 a7 3c 3d 2c 63 5d be 72 43 9e bd
       0.038991366 0.046058208 -0.21619862 -0.07727708
000170 39 51 4a 3e fc ab 68 be 58 37 82 bd 5a 4d 7f 3e
       0.19757546 -0.22721857 -0.06358212 0.24931851
000180 57 dd 72 3e c0 9b cc bc f7 74 29 be ec a2 ca bd
       0.23717247 -0.024976611 -0.16548525 -0.09894356
000190 2a 05 48 3e 8a 6f db 3d e7 49 66 3d f7 65 3c bd
       0.1953322 0.10714634 0.056222823 -0.04599568
0001a0 2c 73 fb 3d 09 89 9d bd 89 08 43 3c 52 79 e6 3d
       0.12277827 -0.07692153 0.01190389 0.11253609
0001b0 99 35 ab 3d d9 9b d1 3d 97 6f b3 bc 5b 9f f6 bd
       0.08359832 0.10234804 -0.021903796 -0.120421134
0001c0 c1 a5 43 be 91 63 a6 3d 98 2d 59 3e 7f 4c 78 3e
       -0.19106199 0.081244595 0.21208799 0.24247931
0001d0 65 6e 2b bd df a1 3b be bf 44 fd bd 4e be 44 be
       -0.041853327 -0.18323468 -0.12366628 -0.1921322
0001e0 48 9f 61 be cb 9e 99 be 74 c3 42 3c c1 08 97 3e
       -0.22033417 -0.30003962 0.01188742 0.29498866
0001f0 9d 56 0a be 2d ac de bd 25 32 f5 3d 43 9d 06 3d
       -0.13509603 -0.10872684 0.11972455 0.03286482
000200 3a d6 5c bd 9e 92 19 be b7 4b 89 bd 03 18 94 3e
       -0.05391524 -0.14997336 -0.067038946 0.2892457
000210 98 49 74 be 75 21 78 3e f5 81 7d bd 2d 91 95 be
       -0.23856199 0.24231513 -0.061891515 -0.29212323
000220 a9 72 a4 3c 65 ee 2a 3e f4 29 6e be ac 2a cc 3d
       0.020074205 0.16692503 -0.23258191 0.099690765
000230 f6 86 5c 3e 8a c4 35 3e de b3 ee bc ec ba 9e 3d
       0.21535859 0.17750755 -0.029138502 0.07750496
000240 df 23 ce bc a9 27 33 be 0f 21 6e be 1a 12 4a be
       -0.025163589 -0.17495598 -0.23254798 -0.19733468
000250 e0 c7 4e 3e 70 82 35 3e b4 fc 46 3e c0 10 74 3e
       0.20193434 0.17725539 0.19432336 0.23834515
000260 06 cf 42 be c7 b6 56 bb e1 cd ae bd 8c 0c 68 be
       -0.19024286 -0.0032762752 -0.08535362 -0.22661036
000270 ff 30 1e bd 1b ac 7a 3e 28 86 fd 3d 59 9c d7 3c
       -0.038620945 0.24479716 0.12379104 0.02631967
000280 78 e7 03 be b6 d2 30 be 2e 48 35 3e b3 d2 40 3e
       -0.12881267 -0.1726788 0.17703316 0.18830375
000290 56 8b 84 be 2a e2 3a 3d f0 cc 49 3e 2e c7 51 bd
       -0.25887555 0.045625843 0.19707084 -0.051215343
0002a0 17 e4 45 3e af ea fd bd 93 c9 06 3e ea 8e ef bd
       0.1932529 -0.12398278 0.13162832 -0.116971806
0002b0 6c 78 26 bd de d8 f8 bd 53 43 4a 3b 28 fa 38 3e
       -0.040642187 -0.12150739 0.0030862882 0.18064177
0002c0 09 d3 32 be dd d6 cf 3d cd 91 3b 3d f2 4b a7 bc
       -0.17463316 0.10148404 0.045793343 -0.020421956
0002d0 3b 26 39 be e6 3d 30 be 3d 05 1b be 87 da ec bd
       -0.1808099 -0.17211112 -0.15138717 -0.11565118
0002e0 8b d1 0f be f4 5a 90 3d 4b 6b 08 be 58 86 59 be
       -0.14044778 0.07048598 -0.13322179 -0.21242654
0002f0 12 de 71 3e 10 13 4c 3d d9 69 11 be 86 3b 92 3e
       0.2361987 0.049822867 -0.14200534 0.28561038
000300 5c cf 2c 3e 9c 6b 2a 3e e1 6a b4 b9 2f f5 7d 3d
       0.16875976 0.16642612 -0.00034411906 0.062001403
000310 17 ee 42 3e f0 ef d0 3d 32 04 96 bd ee fb 6c 3e
       0.19036137 0.102020144 -0.07325019 0.23142979
000320 da 5c 1a 3e 7a f4 f7 3b e2 8f 88 3e 85 d1 18 3e
       0.15074483 0.0075669857 0.26672274 0.14923675
000330 6c 30 6a 3e 0a 98 12 be 84 c9 07 be dc 20 24 bc
       0.22870034 -0.14315811 -0.13260466 -0.0100176
000340 ef 41 86 3e 0a 06 06 be 6f 88 43 be f7 66 e4 3d
       0.26222178 -0.13088241 -0.19095014 0.111524515
000350 2e 88 4d be 42 da 8a 3e 0e 83 69 3d 61 48 53 3e
       -0.2007148 0.27119642 0.05700975 0.20633079
000360 e5 e7 89 3c 25 11 55 be a8 28 07 3e 08 71 5a bc
       0.016834209 -0.20807321 0.13199103 -0.013332613
000370 10 a9 84 3d 89 ec 80 3e 8f bb ce bd 76 03 77 be
       0.064775586 0.25180462 -0.10094368 -0.24122414
000380 a8 f5 0c ba ac c4 aa bd 84 7f 9c bd 91 22 26 be
       -0.0005377182 -0.083382934 -0.07641509 -0.16224124
000390 db 96 e0 3d 68 04 fa bc 85 36 de 3b b9 d1 09 be
       0.109662734 -0.03051968 0.0067814016 -0.13458909
0003a0 98 14 30 3e ee dc cb bb 71 4d 12 3e c7 5e c1 bd
       0.17195356 -0.006221405 0.14287354 -0.094419055
0003b0 b9 78 35 3e 2b 92 11 3d d1 2b 0e 3d 03 18 57 be
       0.17721833 0.035539787 0.034709755 -0.21005253
0003c0 02 14 1f be 60 a0 6f 3d 16 4d c6 bd 09 aa c7 3d
       -0.15534976 0.058502555 -0.09682672 0.097492285
0003d0 32 a6 0a 3d 84 7d c6 3d ae 3a 68 3c 3a 24 84 be
       0.033849902 0.09691909 0.014174147 -0.2580889
0003e0 48 86 05 3b 5d 43 a3 3d b5 28 bd bc 69 b2 f9 bd
       0.0020374227 0.07971833 -0.0230907 -0.12192232
0003f0 d0 7f 2b be d9 50 02 be dd 86 82 3e 15 58 9e 3d
       -0.16747975 -0.12726153 0.25493518 0.07731644

arith.constant23 f4 [40, 40]
000000 73 63 cd 3d 4b ef c9 3d 53 34 98 be 5c 34 07 bd
       0.10028734 0.09860095 -0.2972742 -0.03300892
000010 b3 f9 a8 3d 0b cf 9e bd 1f 1d e0 3c 89 ad 01 3e
       0.08250751 -0.07754334 0.027357636 0.12663855
000020 ab 9e c2 3a 6b 18 12 be 6b 78 0a be 70 6d 1a 3e
       0.0014848312 -0.14267127 -0.13522498 0.1508081
000030 e7 65 b8 bc 32 18 c4 3d 9d 7e 6a be 25 4b 0a 3d
       -0.022509528 0.095749274 -0.22899862 0.03376307
000040 93 81 b3 bc b4 f7 90 be 6f 5b 15 3d 86 71 56 bc
       -0.021912372 -0.28313982 0.03646415 -0.0130885895
000050 6f 5e db bd 87 9c 3a be aa cf b6 bd de f2 47 bd
       -0.10711371 -0.18223773 -0.089263275 -0.0488156
000060 0b c3 7a bd 6d 13 56 3d f2 dc 5c 3c 19 38 90 3c
       -0.061221164 0.05226462 0.013480412 0.017604874
000070 ec b3 1a bd f1 83 16 3e 0b e5 27 3e 4f f9 59 be
       -0.037769243 0.14698769 0.16395967 -0.2128651
000080 76 60 05 be 35 e5 8f be b0 41 64 3e bd 2f dd 3e
       -0.13025078 -0.2810456 0.22290683 0.43200484
000090 97 1e c1 3c ab 1e de bd a3 76 7f bd 20 a0 bc be
       0.023574157 -0.10845693 -0.062369 -0.36840916
0000a0 f1 34 77 be d3 52 d9 3d fa 23 51 3d ce 97 d5 3d
       -0.2414129 0.106115006 0.0510597 0.10429345
0000b0 9b a7 8e be 63 60 73 be dc aa 52 3e f3 46 05 3e
       -0.27862248 -0.23767237 0.2057299 0.13015346
0000c0 d3 a8 9a 3d df a8 a7 3b 00 62 eb 3d 36 06 86 3d
       0.07551732 0.0051165665 0.114933014 0.065441534
0000d0 2c 78 c0 3e 0e e7 6e bc 11 55 8d 3c 9e 37 12 be
       0.37591684 -0.014581455 0.017252477 -0.14279029
0000e0 d9 a1 3f be d5 6b 39 3e 8a 7e a0 3e 62 7a 18 3e
       -0.18714084 0.18107541 0.31346542 0.14890435
0000f0 67 aa 7f 3c ff 21 a5 bd 50 06 54 3d f9 40 4a 3e
       0.015604592 -0.08063125 0.051763833 0.19751348
000100 95 87 90 3d 41 4f ef 3d 40 c0 cc 3d c4 2c 93 3e
       0.0705711 0.11685038 0.09997606 0.2874509
000110 bc 69 34 3d 36 58 fc 3c 43 4b ff bd 34 e5 c0 bd
       0.04404615 0.030803781 -0.12465527 -0.09418717
000120 ed 0c 3d 3d 9b 0a 43 be 0a f4 42 be fc 90 92 bd
       0.046154905 -0.19047014 -0.19038406 -0.0715656
000130 82 8e e4 bd 15 f5 0d be 2f 52 2e bd 1e 4b b9 be
       -0.11159994 -0.13863023 -0.042558845 -0.36190122
000140 b9 fc 89 be 94 76 0e bd 30 98 82 3d d7 bf a4 be
       -0.26950625 -0.034781054 0.06376684 -0.32177612
000150 74 1f d0 3e 4e bb de 3d d6 da 0b 3d f6 15 89 bd
       0.40648997 0.10875569 0.034144245 -0.06693642
000160 73 75 b6 3d 43 50 c6 bc 60 2e c1 bd e8 a2 6f be
       0.089091204 -0.024208194 -0.094326735 -0.23401988
000170 7f ea 4e bd 41 ce 63 bd 34 12 26 bd 5c 0a db 3d
       -0.0505166 -0.05561662 -0.040544704 0.10695335
000180 dd 57 c8 ba e1 26 7f bc 75 32 65 3d f7 5b 3b bd
       -0.0015284974 -0.015573234 0.055956323 -0.045742
000190 f8 be 3a be 59 26 8b be e4 52 db be b3 db 71 3e
       -0.18236911 -0.27177694 -0.42836678 0.23618965
0001a0 e5 5a 50 3d d9 1a ff bd 92 29 ed bb 35 f8 6c 3d
       0.050867934 -0.12456293 -0.0072376216 0.057853896
0001b0 dc 1c e2 3d c3 7f 50 3d b2 f5 c2 bc e3 c1 e3 bd
       0.11040661 0.050903093 -0.023798797 -0.11120965
0001c0 74 12 5f 3b 01 29 54 3e 90 24 8f 3d e6 b0 09 be
       0.0034038099 0.20718767 0.069893956 -0.13446388
0001d0 9a 5e 43 be 15 ea 2d be d3 e7 2b be 56 fd 0a bd
       -0.19079056 -0.16983826 -0.16787653 -0.033933006
0001e0 29 f7 52 bc 4c 73 c9 be ed 74 19 be 86 09 85 be
       -0.01287631 -0.39345777 -0.1498601 -0.25983828
0001f0 08 9c f6 3d a9 18 96 3d a9 64 18 be 0e b9 f6 bc
       0.12041479 0.07328922 -0.14882149 -0.030117538
000200 07 69 32 be f1 bd 73 3d 70 62 95 3d a6 0f 62 3e
       -0.17422877 0.059507314 0.07294166 0.22076282
000210 a5 22 15 3e 98 02 a1 bd e1 f2 3f be d1 41 82 3d
       0.14563997 -0.07861823 -0.18744995 0.0636021
000220 2b 35 14 be b4 ec 66 3e 7e 6b 1e be 58 25 ef 3d
       -0.14473407 0.22551233 -0.15470693 0.11677045
000230 86 3f 65 3d 6e d7 9b 3d 7f 5b 8e be 84 8e 22 bd
       0.055968784 0.07609449 -0.2780418 -0.039686695
000240 2d 9a 1f 3d b3 78 2d 3e 11 7f 98 be 54 4f 39 39
       0.038965393 0.16940574 -0.29784444 0.00017672527
000250 43 1a 36 3e 31 87 2c be 66 6f 3f be f5 55 23 3e
       0.17783456 -0.16848446 -0.18694839 0.15950759
000260 79 35 d9 3c 4d 0a a6 be 31 71 79 3c bd 19 fc 3c
       0.026514756 -0.32429734 0.015224741 0.030773992
000270 99 14 60 be 3d df 82 3e d1 85 16 3d 91 d3 4d 3d
       -0.21882857 0.25560942 0.03674871 0.050250594
000280 7e 8e 9d bd 40 ac a5 3b cb d1 ed 3d 49 f5 c4 3a
       -0.07693194 0.005055934 0.116122805 0.0015026714
000290 46 ab 7e be de 06 d2 bd 08 1d 11 3e 55 43 70 be
       -0.24870023 -0.10255216 0.14171231 -0.23463185
0002a0 32 e4 29 3e 4c 05 8b be 19 e4 45 bc 98 b7 67 3e
       0.16590956 -0.2715248 -0.0120783085 0.22628629
0002b0 77 ee b0 3d 81 8e e9 3d 49 f2 2c 3e 0e c2 9a bd
       0.086392336 0.114041336 0.168893 -0.07556544
0002c0 40 43 31 be 38 2d 81 bc 4a af 7f be f1 47 83 bd
       -0.1731081 -0.015768632 -0.24969211 -0.06410206
0002d0 95 e1 a3 bd a5 7d e6 3d 7d 0c fc bd ab 2b 0c 3e
       -0.08002011 0.112544335 -0.123070695 0.13688533
0002e0 bf ea 98 3d bc d9 cc bd d3 21 70 3e 32 86 1c 3d
       0.07466649 -0.10002467 0.23450403 0.038213916
0002f0 35 0d 75 3e 6e 1b 2f 3d 11 b8 ea 3d a2 c9 3b be
       0.2393082 0.04275077 0.11460889 -0.18338636
000300 8f 41 9a bd 95 69 cf bd 58 e9 97 3e 6e d6 38 bd
       -0.075320356 -0.1012756 0.29670215 -0.04512637
000310 99 59 43 3e 97 74 8e 3e 45 9a 83 be e5 cb 1d 3e
       0.19077148 0.27823326 -0.25703636 0.15409811
000320 76 f0 3d be bb 45 9d 3d 0d 91 23 be 21 22 9f 3e
       -0.1854876 0.07679316 -0.15973301 0.31080726
000330 b9 aa e7 3d 28 66 30 be 7f 3c c7 bd 5c dc 80 be
       0.1131186 -0.1722647 -0.097283356 -0.2516812
000340 a6 a1 a8 3d 9e 58 ad be e4 00 54 bd 78 19 e2 bd
       0.08233957 -0.33856672 -0.051758662 -0.11040014
000350 b5 b4 87 3d f4 ba d6 3d 46 d9 c7 bd 27 9f 89 3d
       0.06626264 0.10484877 -0.097582385 0.06719809
000360 cd b0 98 be 78 c6 00 be e7 10 a4 3e e8 f8 41 3e
       -0.29822388 -0.1257571 0.32044145 0.18942606
000370 11 fc e8 bc 6e 8f 2a 3e a7 e3 e3 bd ed a3 97 bd
       -0.028440507 0.16656277 -0.111274056 -0.07404313
000380 b5 47 5d 3e 1a f4 97 3d 5c 0c 77 be dc a3 0e 3e
       0.21609385 0.074196056 -0.24125808 0.13929695
000390 9d 0f d1 3b c2 bd 2c bd c1 33 47 3e cf 45 e4 3d
       0.006380035 -0.042173155 0.19453336 0.111461274
0003a0 8d 5a 07 3d 7f 01 af 3d 5f 02 ef 3d 3d 2a b1 bd
       0.03304534 0.08545207 0.11670374 -0.086506344
0003b0 d8 42 36 3e ea 6c e6 bd 12 cf 70 3e 75 9a 40 3e
       0.17798936 -0.112512425 0.23516491 0.1880892
0003c0 62 51 b5 bd 30 eb a0 bc 61 f8 4f be e4 fa f1 bd
       -0.08853413 -0.019643396 -0.20309593 -0.11815432
0003d0 23 48 2a 3d 98 7e 98 3d 50 0e 7a be 97 bb 1e 3e
       0.0415727 0.07446021 -0.24419522 0.15501247
0003e0 49 64 f1 3d db f2 bc 3d f4 94 c2 3d 0c f5 88 3e
       0.11786706 0.092260085 0.09501067 0.26749456
0003f0 db aa f7 bd f0 6a 9a 3d 49 62 2b be 84 01 bc be
       -0.12093135 0.07539928 -0.16736712 -0.36719906

arith.constant24 f4 [40]
000000 a9 f8 6f bb 57 1f de 3c 59 35 0e 3c 0d 80 8b bc
       -0.003661672 0.027114553 0.008679711 -0.017028833
000010 a3 47 07 bd 8d f6 45 3d 4b 60 11 bd 32 0e f2 3c
       -0.033027302 0.048330832 -0.035492223 0.029547784
000020 66 b5 96 bd 58 d3 0f 3d 95 58 66 bd 54 c4 46 bd
       -0.07358818 0.035113662 -0.056236822 -0.048527077
000030 59 a8 39 3d d0 44 65 3d 9e 0a 47 3d 07 71 25 3c
       0.045326564 0.055973828 0.04859411 0.010097749
000040 11 f2 0d bd cb 30 14 bc a1 d8 27 3e 97 60 2b bd
       -0.03465468 -0.009044836 0.16391231 -0.041840162
000050 89 93 3f 3d 21 55 fb 3c 15 60 bd 3c 11 dc 20 bd
       0.04677156 0.030680241 0.023117105 -0.03927237
000060 a8 84 c9 3d cc e0 1c bd 64 86 35 bd 4c 6e bf 3d
       0.09839755 -0.03830032 -0.044317618 0.09347209
000070 4b 57 75 3d 3c cc 41 3c a8 f6 a7 3d 5b d3 86 3d
       0.059897702 0.011828478 0.08201343 0.065832816
000080 0d 8d fa bd 93 4f d4 bc 98 83 36 bc a3 a5 58 bd
       -0.122339346 -0.02591685 -0.011139773 -0.05289234
000090 41 da 3b 3c e9 a0 6a bd 05 88 8b bc 25 5f a4 bb
       0.01146561 -0.057282362 -0.017032633 -0.005016225
